…
      "/opt/conda/lib/python3.10/site-packages/torchvision/models/_utils.py:223: UserWarning: Arguments other than a weight enum or `None` for 'weights' are deprecated since 0.13 and may be removed in the future. The current behavior is equivalent to passing `weights=VGG16_Weights.IMAGENET1K_V1`. You can also use `weights=VGG16_Weights.DEFAULT` to get the most up-to-date weights.\n",
      "  warnings.warn(msg)\n",
      "Downloading: \"https://download.pytorch.org/models/vgg16-397923af.pth\" to /root/.cache/torch/hub/checkpoints/vgg16-397923af.pth\n",
      "100%|██████████| 528M/528M [00:02<00:00, 195MB/s]\n"
     ]
    },
    {
     "name": "stdout",
     "output_type": "stream",
     "text": [
      "RCNNWithSegmentation(\n",
      "  (features): Sequential(\n",
      "    (0): Conv2d(3, 64, kernel_size=(3, 3), stride=(1, 1), padding=(1, 1))\n",
      "    (1): ReLU(inplace=True)\n",
      "    (2): Conv2d(64, 64, kernel_size=(3, 3), stride=(1, 1), padding=(1, 1))\n",
      "    (3): ReLU(inplace=True)\n",
      "    (4): MaxPool2d(kernel_size=2, stride=2, padding=0, dilation=1, ceil_mode=False)\n",
      "    (5): Conv2d(64, 128, kernel_size=(3, 3), stride=(1, 1), padding=(1, 1))\n",
      "    (6): ReLU(inplace=True)\n",
      "    (7): Conv2d(128, 128, kernel_size=(3, 3), stride=(1, 1), padding=(1, 1))\n",
      "    (8): ReLU(inplace=True)\n",
      "    (9): MaxPool2d(kernel_size=2, stride=2, padding=0, dilation=1, ceil_mode=False)\n",
      "    (10): Conv2d(128, 256, kernel_size=(3, 3), stride=(1, 1), padding=(1, 1))\n",
      "    (11): ReLU(inplace=True)\n",
      "    (12): Conv2d(256, 256, kernel_size=(3, 3), stride=(1, 1), padding=(1, 1))\n",
      "    (13): ReLU(inplace=True)\n",
      "    (14): Conv2d(256, 256, kernel_size=(3, 3), stride=(1, 1), padding=(1, 1))\n",
      "    (15): ReLU(inplace=True)\n",
      "    (16): MaxPool2d(kernel_size=2, stride=2, padding=0, dilation=1, ceil_mode=False)\n",
      "    (17): Conv2d(256, 512, kernel_size=(3, 3), stride=(1, 1), padding=(1, 1))\n",
      "    (18): ReLU(inplace=True)\n",
      "    (19): Conv2d(512, 512, kernel_size=(3, 3), stride=(1, 1), padding=(1, 1))\n",
      "    (20): ReLU(inplace=True)\n",
      "    (21): Conv2d(512, 512, kernel_size=(3, 3), stride=(1, 1), padding=(1, 1))\n",
      "    (22): ReLU(inplace=True)\n",
      "    (23): MaxPool2d(kernel_size=2, stride=2, padding=0, dilation=1, ceil_mode=False)\n",
      "    (24): Conv2d(512, 512, kernel_size=(3, 3), stride=(1, 1), padding=(1, 1))\n",
      "    (25): ReLU(inplace=True)\n",
      "    (26): Conv2d(512, 512, kernel_size=(3, 3), stride=(1, 1), padding=(1, 1))\n",
      "    (27): ReLU(inplace=True)\n",
      "    (28): Conv2d(512, 512, kernel_size=(3, 3), stride=(1, 1), padding=(1, 1))\n",
      "    (29): ReLU(inplace=True)\n",
      "    (30): MaxPool2d(kernel_size=2, stride=2, padding=0, dilation=1, ceil_mode=False)\n",
      "  )\n",
      "  (avgpool): AdaptiveAvgPool2d(output_size=(7, 7))\n",
      "  (fc): Sequential(\n",
      "    (0): Linear(in_features=25088, out_features=4096, bias=True)\n",
      "    (1): ReLU(inplace=True)\n",
      "    (2): Dropout(p=0.5, inplace=False)\n",
      "    (3): Linear(in_features=4096, out_features=4096, bias=True)\n",
      "    (4): ReLU(inplace=True)\n",
      "    (5): Dropout(p=0.5, inplace=False)\n",
      "  )\n",
      "  (classifier): Linear(in_features=4096, out_features=2, bias=True)\n",
      "  (regressor): Linear(in_features=4096, out_features=4, bias=True)\n",
      "  (mask_head): Sequential(\n",
      "    (0): Conv2d(512, 256, kernel_size=(3, 3), stride=(1, 1), padding=(1, 1))\n",
      "    (1): ReLU(inplace=True)\n",
      "    (2): Conv2d(256, 128, kernel_size=(3, 3), stride=(1, 1), padding=(1, 1))\n",
      "    (3): ReLU(inplace=True)\n",
      "    (4): ConvTranspose2d(128, 64, kernel_size=(2, 2), stride=(2, 2))\n",
      "    (5): ReLU(inplace=True)\n",
      "    (6): ConvTranspose2d(64, 1, kernel_size=(2, 2), stride=(2, 2))\n",
      "    (7): Sigmoid()\n",
      "  )\n",
      ")\n"
     ]
    }
   ],
   "source": [
    "# Initialize the model\n",
    "model = RCNNWithSegmentation(num_classes=2)  # 2 classes: Background and Pedestrian\n",
    "device = 'cuda' if torch.cuda.is_available() else 'cpu'\n",
    "model = model.to(device)\n",
    "\n",
    "# Print the model architecture\n",
…
